…
- This IS expected if you are initializing CLIPTextModel from the checkpoint of a model trained on another task or with another architecture (e.g. initializing a BertForSequenceClassification model from a BertForPreTraining model).
- This IS NOT expected if you are initializing CLIPTextModel from the checkpoint of a model that you expect to be exactly identical (initializing a BertForSequenceClassification model from a BertForSequenceClassification model).
INFO:absl:saving meta data
/workspace_local/libs/schedule.py:58: RuntimeWarning: divide by zero encountered in divide
  self.snr = self.cum_alphas / self.cum_betas
INFO:absl:use Schedule([0.         0.00085    0.0008547  0.00085941 0.00086413 0.00086887
 0.00087362 0.00087839 0.00088316 0.00088795]..., 1000)
UViT(
  (patch_embed): PatchEmbed(
    (proj): Conv2d(4, 1536, kernel_size=(2, 2), stride=(2, 2))
  )
  (time_img_embed): Identity()
  (time_text_embed): Identity()
  (text_embed): Linear(in_features=64, out_features=1536, bias=True)
  (text_out): Linear(in_features=1536, out_features=64, bias=True)
  (clip_img_embed): Linear(in_features=512, out_features=1536, bias=True)
  (clip_img_out): Linear(in_features=1536, out_features=512, bias=True)
  (pos_drop): Dropout(p=0.0, inplace=False)
  (in_blocks): ModuleList(
    (0): Block(
      (norm2): LayerNorm((1536,), eps=1e-05, elementwise_affine=True)
      (attn): Attention(
        (qkv): Linear(in_features=1536, out_features=4608, bias=False)
        (attn_drop): Dropout(p=0.0, inplace=False)
        (proj): Linear(in_features=1536, out_features=1536, bias=True)
        (proj_drop): Dropout(p=0.0, inplace=False)
      )
      (drop_path): Identity()
      (norm3): LayerNorm((1536,), eps=1e-05, elementwise_affine=True)
      (mlp): Mlp(
        (fc1): Linear(in_features=1536, out_features=6144, bias=True)
        (act): GELU(approximate='none')
        (fc2): Linear(in_features=6144, out_features=1536, bias=True)
        (drop): Dropout(p=0.0, inplace=False)
      )
    )
    (1): Block(
      (norm2): LayerNorm((1536,), eps=1e-05, elementwise_affine=True)
      (attn): Attention(
        (qkv): Linear(in_features=1536, out_features=4608, bias=False)
        (attn_drop): Dropout(p=0.0, inplace=False)
        (proj): Linear(in_features=1536, out_features=1536, bias=True)
        (proj_drop): Dropout(p=0.0, inplace=False)
      )
      (drop_path): Identity()
      (norm3): LayerNorm((1536,), eps=1e-05, elementwise_affine=True)
      (mlp): Mlp(
        (fc1): Linear(in_features=1536, out_features=6144, bias=True)
        (act): GELU(approximate='none')
        (fc2): Linear(in_features=6144, out_features=1536, bias=True)
        (drop): Dropout(p=0.0, inplace=False)
      )
    )
    (2): Block(
      (norm2): LayerNorm((1536,), eps=1e-05, elementwise_affine=True)
      (attn): Attention(
        (qkv): Linear(in_features=1536, out_features=4608, bias=False)
        (attn_drop): Dropout(p=0.0, inplace=False)
        (proj): Linear(in_features=1536, out_features=1536, bias=True)
        (proj_drop): Dropout(p=0.0, inplace=False)
      )
      (drop_path): Identity()
      (norm3): LayerNorm((1536,), eps=1e-05, elementwise_affine=True)
      (mlp): Mlp(
        (fc1): Linear(in_features=1536, out_features=6144, bias=True)
        (act): GELU(approximate='none')
        (fc2): Linear(in_features=6144, out_features=1536, bias=True)
        (drop): Dropout(p=0.0, inplace=False)
      )
    )
    (3): Block(
      (norm2): LayerNorm((1536,), eps=1e-05, elementwise_affine=True)
      (attn): Attention(
        (qkv): Linear(in_features=1536, out_features=4608, bias=False)
        (attn_drop): Dropout(p=0.0, inplace=False)
        (proj): Linear(in_features=1536, out_features=1536, bias=True)
        (proj_drop): Dropout(p=0.0, inplace=False)
      )
      (drop_path): Identity()
      (norm3): LayerNorm((1536,), eps=1e-05, elementwise_affine=True)
      (mlp): Mlp(
        (fc1): Linear(in_features=1536, out_features=6144, bias=True)
        (act): GELU(approximate='none')
        (fc2): Linear(in_features=6144, out_features=1536, bias=True)
        (drop): Dropout(p=0.0, inplace=False)
      )
    )
    (4): Block(
      (norm2): LayerNorm((1536,), eps=1e-05, elementwise_affine=True)
      (attn): Attention(
        (qkv): Linear(in_features=1536, out_features=4608, bias=False)
        (attn_drop): Dropout(p=0.0, inplace=False)
        (proj): Linear(in_features=1536, out_features=1536, bias=True)
        (proj_drop): Dropout(p=0.0, inplace=False)
      )
      (drop_path): Identity()
      (norm3): LayerNorm((1536,), eps=1e-05, elementwise_affine=True)
      (mlp): Mlp(
        (fc1): Linear(in_features=1536, out_features=6144, bias=True)
        (act): GELU(approximate='none')
        (fc2): Linear(in_features=6144, out_features=1536, bias=True)
        (drop): Dropout(p=0.0, inplace=False)
      )
    )
    (5): Block(
      (norm2): LayerNorm((1536,), eps=1e-05, elementwise_affine=True)
      (attn): Attention(
        (qkv): Linear(in_features=1536, out_features=4608, bias=False)
        (attn_drop): Dropout(p=0.0, inplace=False)
        (proj): Linear(in_features=1536, out_features=1536, bias=True)
        (proj_drop): Dropout(p=0.0, inplace=False)
      )
      (drop_path): Identity()
      (norm3): LayerNorm((1536,), eps=1e-05, elementwise_affine=True)
      (mlp): Mlp(
        (fc1): Linear(in_features=1536, out_features=6144, bias=True)
        (act): GELU(approximate='none')
        (fc2): Linear(in_features=6144, out_features=1536, bias=True)
        (drop): Dropout(p=0.0, inplace=False)
      )
    )
    (6): Block(
      (norm2): LayerNorm((1536,), eps=1e-05, elementwise_affine=True)
      (attn): Attention(
        (qkv): Linear(in_features=1536, out_features=4608, bias=False)
        (attn_drop): Dropout(p=0.0, inplace=False)
        (proj): Linear(in_features=1536, out_features=1536, bias=True)
        (proj_drop): Dropout(p=0.0, inplace=False)
      )
      (drop_path): Identity()
      (norm3): LayerNorm((1536,), eps=1e-05, elementwise_affine=True)
      (mlp): Mlp(
        (fc1): Linear(in_features=1536, out_features=6144, bias=True)
        (act): GELU(approximate='none')
        (fc2): Linear(in_features=6144, out_features=1536, bias=True)
        (drop): Dropout(p=0.0, inplace=False)
      )
    )
    (7): Block(
      (norm2): LayerNorm((1536,), eps=1e-05, elementwise_affine=True)
      (attn): Attention(
        (qkv): Linear(in_features=1536, out_features=4608, bias=False)
        (attn_drop): Dropout(p=0.0, inplace=False)
        (proj): Linear(in_features=1536, out_features=1536, bias=True)
        (proj_drop): Dropout(p=0.0, inplace=False)
      )
      (drop_path): Identity()
      (norm3): LayerNorm((1536,), eps=1e-05, elementwise_affine=True)
      (mlp): Mlp(
        (fc1): Linear(in_features=1536, out_features=6144, bias=True)
        (act): GELU(approximate='none')
        (fc2): Linear(in_features=6144, out_features=1536, bias=True)
        (drop): Dropout(p=0.0, inplace=False)
      )
    )
    (8): Block(
      (norm2): LayerNorm((1536,), eps=1e-05, elementwise_affine=True)
      (attn): Attention(
        (qkv): Linear(in_features=1536, out_features=4608, bias=False)
        (attn_drop): Dropout(p=0.0, inplace=False)
        (proj): Linear(in_features=1536, out_features=1536, bias=True)
        (proj_drop): Dropout(p=0.0, inplace=False)
      )
      (drop_path): Identity()
      (norm3): LayerNorm((1536,), eps=1e-05, elementwise_affine=True)
      (mlp): Mlp(
        (fc1): Linear(in_features=1536, out_features=6144, bias=True)
        (act): GELU(approximate='none')
        (fc2): Linear(in_features=6144, out_features=1536, bias=True)
        (drop): Dropout(p=0.0, inplace=False)
      )
    )
    (9): Block(
      (norm2): LayerNorm((1536,), eps=1e-05, elementwise_affine=True)
      (attn): Attention(
        (qkv): Linear(in_features=1536, out_features=4608, bias=False)
        (attn_drop): Dropout(p=0.0, inplace=False)
        (proj): Linear(in_features=1536, out_features=1536, bias=True)
        (proj_drop): Dropout(p=0.0, inplace=False)
      )
      (drop_path): Identity()
      (norm3): LayerNorm((1536,), eps=1e-05, elementwise_affine=True)
      (mlp): Mlp(
        (fc1): Linear(in_features=1536, out_features=6144, bias=True)
        (act): GELU(approximate='none')
        (fc2): Linear(in_features=6144, out_features=1536, bias=True)
        (drop): Dropout(p=0.0, inplace=False)
      )
    )
    (10): Block(
      (norm2): LayerNorm((1536,), eps=1e-05, elementwise_affine=True)
      (attn): Attention(
        (qkv): Linear(in_features=1536, out_features=4608, bias=False)
        (attn_drop): Dropout(p=0.0, inplace=False)
        (proj): Linear(in_features=1536, out_features=1536, bias=True)
        (proj_drop): Dropout(p=0.0, inplace=False)
      )
      (drop_path): Identity()
      (norm3): LayerNorm((1536,), eps=1e-05, elementwise_affine=True)
      (mlp): Mlp(
        (fc1): Linear(in_features=1536, out_features=6144, bias=True)
        (act): GELU(approximate='none')
        (fc2): Linear(in_features=6144, out_features=1536, bias=True)
        (drop): Dropout(p=0.0, inplace=False)
      )
    )
    (11): Block(
      (norm2): LayerNorm((1536,), eps=1e-05, elementwise_affine=True)
      (attn): Attention(
        (qkv): Linear(in_features=1536, out_features=4608, bias=False)
        (attn_drop): Dropout(p=0.0, inplace=False)
        (proj): Linear(in_features=1536, out_features=1536, bias=True)
        (proj_drop): Dropout(p=0.0, inplace=False)
      )
      (drop_path): Identity()
      (norm3): LayerNorm((1536,), eps=1e-05, elementwise_affine=True)
      (mlp): Mlp(
        (fc1): Linear(in_features=1536, out_features=6144, bias=True)
        (act): GELU(approximate='none')
        (fc2): Linear(in_features=6144, out_features=1536, bias=True)
        (drop): Dropout(p=0.0, inplace=False)
      )
    )
    (12): Block(
      (norm2): LayerNorm((1536,), eps=1e-05, elementwise_affine=True)
      (attn): Attention(
        (qkv): Linear(in_features=1536, out_features=4608, bias=False)
        (attn_drop): Dropout(p=0.0, inplace=False)
        (proj): Linear(in_features=1536, out_features=1536, bias=True)
        (proj_drop): Dropout(p=0.0, inplace=False)
      )
      (drop_path): Identity()
      (norm3): LayerNorm((1536,), eps=1e-05, elementwise_affine=True)
      (mlp): Mlp(
        (fc1): Linear(in_features=1536, out_features=6144, bias=True)
        (act): GELU(approximate='none')
        (fc2): Linear(in_features=6144, out_features=1536, bias=True)
        (drop): Dropout(p=0.0, inplace=False)
      )
    )
    (13): Block(
      (norm2): LayerNorm((1536,), eps=1e-05, elementwise_affine=True)
      (attn): Attention(
        (qkv): Linear(in_features=1536, out_features=4608, bias=False)
        (attn_drop): Dropout(p=0.0, inplace=False)
        (proj): Linear(in_features=1536, out_features=1536, bias=True)
        (proj_drop): Dropout(p=0.0, inplace=False)
      )
      (drop_path): Identity()
      (norm3): LayerNorm((1536,), eps=1e-05, elementwise_affine=True)
      (mlp): Mlp(
        (fc1): Linear(in_features=1536, out_features=6144, bias=True)
        (act): GELU(approximate='none')
        (fc2): Linear(in_features=6144, out_features=1536, bias=True)
        (drop): Dropout(p=0.0, inplace=False)
      )
    )
    (14): Block(
      (norm2): LayerNorm((1536,), eps=1e-05, elementwise_affine=True)
      (attn): Attention(
        (qkv): Linear(in_features=1536, out_features=4608, bias=False)
        (attn_drop): Dropout(p=0.0, inplace=False)
        (proj): Linear(in_features=1536, out_features=1536, bias=True)
        (proj_drop): Dropout(p=0.0, inplace=False)
      )
      (drop_path): Identity()
      (norm3): LayerNorm((1536,), eps=1e-05, elementwise_affine=True)
      (mlp): Mlp(
        (fc1): Linear(in_features=1536, out_features=6144, bias=True)
        (act): GELU(approximate='none')
        (fc2): Linear(in_features=6144, out_features=1536, bias=True)
        (drop): Dropout(p=0.0, inplace=False)
      )
    )
  )
  (mid_block): Block(
    (norm2): LayerNorm((1536,), eps=1e-05, elementwise_affine=True)
    (attn): Attention(
      (qkv): Linear(in_features=1536, out_features=4608, bias=False)
      (attn_drop): Dropout(p=0.0, inplace=False)
      (proj): Linear(in_features=1536, out_features=1536, bias=True)
      (proj_drop): Dropout(p=0.0, inplace=False)
    )
    (drop_path): Identity()
    (norm3): LayerNorm((1536,), eps=1e-05, elementwise_affine=True)
    (mlp): Mlp(
      (fc1): Linear(in_features=1536, out_features=6144, bias=True)
      (act): GELU(approximate='none')
      (fc2): Linear(in_features=6144, out_features=1536, bias=True)
      (drop): Dropout(p=0.0, inplace=False)
    )
  )
  (out_blocks): ModuleList(
    (0): Block(
      (norm1): LayerNorm((1536,), eps=1e-05, elementwise_affine=True)
      (norm2): LayerNorm((1536,), eps=1e-05, elementwise_affine=True)
      (attn): Attention(
        (qkv): Linear(in_features=1536, out_features=4608, bias=False)
        (attn_drop): Dropout(p=0.0, inplace=False)
        (proj): Linear(in_features=1536, out_features=1536, bias=True)
        (proj_drop): Dropout(p=0.0, inplace=False)
      )
      (drop_path): Identity()
      (norm3): LayerNorm((1536,), eps=1e-05, elementwise_affine=True)
      (mlp): Mlp(
        (fc1): Linear(in_features=1536, out_features=6144, bias=True)
        (act): GELU(approximate='none')
        (fc2): Linear(in_features=6144, out_features=1536, bias=True)
        (drop): Dropout(p=0.0, inplace=False)
      )
      (skip_linear): Linear(in_features=3072, out_features=1536, bias=True)
    )
    (1): Block(
      (norm1): LayerNorm((1536,), eps=1e-05, elementwise_affine=True)
      (norm2): LayerNorm((1536,), eps=1e-05, elementwise_affine=True)
      (attn): Attention(
        (qkv): Linear(in_features=1536, out_features=4608, bias=False)
        (attn_drop): Dropout(p=0.0, inplace=False)
        (proj): Linear(in_features=1536, out_features=1536, bias=True)
        (proj_drop): Dropout(p=0.0, inplace=False)
      )
      (drop_path): Identity()
      (norm3): LayerNorm((1536,), eps=1e-05, elementwise_affine=True)
      (mlp): Mlp(
        (fc1): Linear(in_features=1536, out_features=6144, bias=True)
        (act): GELU(approximate='none')
        (fc2): Linear(in_features=6144, out_features=1536, bias=True)
        (drop): Dropout(p=0.0, inplace=False)
      )
      (skip_linear): Linear(in_features=3072, out_features=1536, bias=True)
    )
    (2): Block(
      (norm1): LayerNorm((1536,), eps=1e-05, elementwise_affine=True)
      (norm2): LayerNorm((1536,), eps=1e-05, elementwise_affine=True)
      (attn): Attention(
        (qkv): Linear(in_features=1536, out_features=4608, bias=False)
        (attn_drop): Dropout(p=0.0, inplace=False)
        (proj): Linear(in_features=1536, out_features=1536, bias=True)
        (proj_drop): Dropout(p=0.0, inplace=False)
      )
      (drop_path): Identity()
      (norm3): LayerNorm((1536,), eps=1e-05, elementwise_affine=True)
      (mlp): Mlp(
        (fc1): Linear(in_features=1536, out_features=6144, bias=True)
        (act): GELU(approximate='none')
        (fc2): Linear(in_features=6144, out_features=1536, bias=True)
        (drop): Dropout(p=0.0, inplace=False)
      )
      (skip_linear): Linear(in_features=3072, out_features=1536, bias=True)
    )
    (3): Block(
      (norm1): LayerNorm((1536,), eps=1e-05, elementwise_affine=True)
      (norm2): LayerNorm((1536,), eps=1e-05, elementwise_affine=True)
      (attn): Attention(
        (qkv): Linear(in_features=1536, out_features=4608, bias=False)
        (attn_drop): Dropout(p=0.0, inplace=False)
        (proj): Linear(in_features=1536, out_features=1536, bias=True)
        (proj_drop): Dropout(p=0.0, inplace=False)
      )
      (drop_path): Identity()
      (norm3): LayerNorm((1536,), eps=1e-05, elementwise_affine=True)
      (mlp): Mlp(
        (fc1): Linear(in_features=1536, out_features=6144, bias=True)
        (act): GELU(approximate='none')
        (fc2): Linear(in_features=6144, out_features=1536, bias=True)
        (drop): Dropout(p=0.0, inplace=False)
      )
      (skip_linear): Linear(in_features=3072, out_features=1536, bias=True)
    )
    (4): Block(
      (norm1): LayerNorm((1536,), eps=1e-05, elementwise_affine=True)
      (norm2): LayerNorm((1536,), eps=1e-05, elementwise_affine=True)
      (attn): Attention(
        (qkv): Linear(in_features=1536, out_features=4608, bias=False)
        (attn_drop): Dropout(p=0.0, inplace=False)
        (proj): Linear(in_features=1536, out_features=1536, bias=True)
        (proj_drop): Dropout(p=0.0, inplace=False)
      )
      (drop_path): Identity()
      (norm3): LayerNorm((1536,), eps=1e-05, elementwise_affine=True)
      (mlp): Mlp(
        (fc1): Linear(in_features=1536, out_features=6144, bias=True)
        (act): GELU(approximate='none')
        (fc2): Linear(in_features=6144, out_features=1536, bias=True)
        (drop): Dropout(p=0.0, inplace=False)
      )
      (skip_linear): Linear(in_features=3072, out_features=1536, bias=True)
    )
    (5): Block(
      (norm1): LayerNorm((1536,), eps=1e-05, elementwise_affine=True)
      (norm2): LayerNorm((1536,), eps=1e-05, elementwise_affine=True)
      (attn): Attention(
        (qkv): Linear(in_features=1536, out_features=4608, bias=False)
        (attn_drop): Dropout(p=0.0, inplace=False)
        (proj): Linear(in_features=1536, out_features=1536, bias=True)
        (proj_drop): Dropout(p=0.0, inplace=False)
      )
      (drop_path): Identity()
      (norm3): LayerNorm((1536,), eps=1e-05, elementwise_affine=True)
      (mlp): Mlp(
        (fc1): Linear(in_features=1536, out_features=6144, bias=True)
        (act): GELU(approximate='none')
        (fc2): Linear(in_features=6144, out_features=1536, bias=True)
        (drop): Dropout(p=0.0, inplace=False)
      )
      (skip_linear): Linear(in_features=3072, out_features=1536, bias=True)
    )
    (6): Block(
      (norm1): LayerNorm((1536,), eps=1e-05, elementwise_affine=True)
      (norm2): LayerNorm((1536,), eps=1e-05, elementwise_affine=True)
      (attn): Attention(
        (qkv): Linear(in_features=1536, out_features=4608, bias=False)
        (attn_drop): Dropout(p=0.0, inplace=False)
        (proj): Linear(in_features=1536, out_features=1536, bias=True)
        (proj_drop): Dropout(p=0.0, inplace=False)
      )
      (drop_path): Identity()
      (norm3): LayerNorm((1536,), eps=1e-05, elementwise_affine=True)
      (mlp): Mlp(
        (fc1): Linear(in_features=1536, out_features=6144, bias=True)
        (act): GELU(approximate='none')
        (fc2): Linear(in_features=6144, out_features=1536, bias=True)
        (drop): Dropout(p=0.0, inplace=False)
      )
      (skip_linear): Linear(in_features=3072, out_features=1536, bias=True)
    )
    (7): Block(
      (norm1): LayerNorm((1536,), eps=1e-05, elementwise_affine=True)
      (norm2): LayerNorm((1536,), eps=1e-05, elementwise_affine=True)
      (attn): Attention(
        (qkv): Linear(in_features=1536, out_features=4608, bias=False)
        (attn_drop): Dropout(p=0.0, inplace=False)
        (proj): Linear(in_features=1536, out_features=1536, bias=True)
        (proj_drop): Dropout(p=0.0, inplace=False)
      )
      (drop_path): Identity()
      (norm3): LayerNorm((1536,), eps=1e-05, elementwise_affine=True)
      (mlp): Mlp(
        (fc1): Linear(in_features=1536, out_features=6144, bias=True)
        (act): GELU(approximate='none')
        (fc2): Linear(in_features=6144, out_features=1536, bias=True)
        (drop): Dropout(p=0.0, inplace=False)
      )
      (skip_linear): Linear(in_features=3072, out_features=1536, bias=True)
    )
    (8): Block(
      (norm1): LayerNorm((1536,), eps=1e-05, elementwise_affine=True)
      (norm2): LayerNorm((1536,), eps=1e-05, elementwise_affine=True)
      (attn): Attention(
        (qkv): Linear(in_features=1536, out_features=4608, bias=False)
        (attn_drop): Dropout(p=0.0, inplace=False)
        (proj): Linear(in_features=1536, out_features=1536, bias=True)
        (proj_drop): Dropout(p=0.0, inplace=False)
      )
      (drop_path): Identity()
      (norm3): LayerNorm((1536,), eps=1e-05, elementwise_affine=True)
      (mlp): Mlp(
        (fc1): Linear(in_features=1536, out_features=6144, bias=True)
        (act): GELU(approximate='none')
        (fc2): Linear(in_features=6144, out_features=1536, bias=True)
        (drop): Dropout(p=0.0, inplace=False)
      )
      (skip_linear): Linear(in_features=3072, out_features=1536, bias=True)
    )
    (9): Block(
      (norm1): LayerNorm((1536,), eps=1e-05, elementwise_affine=True)
      (norm2): LayerNorm((1536,), eps=1e-05, elementwise_affine=True)
      (attn): Attention(
        (qkv): Linear(in_features=1536, out_features=4608, bias=False)
        (attn_drop): Dropout(p=0.0, inplace=False)
        (proj): Linear(in_features=1536, out_features=1536, bias=True)
        (proj_drop): Dropout(p=0.0, inplace=False)
      )
      (drop_path): Identity()
      (norm3): LayerNorm((1536,), eps=1e-05, elementwise_affine=True)
      (mlp): Mlp(
        (fc1): Linear(in_features=1536, out_features=6144, bias=True)
        (act): GELU(approximate='none')
        (fc2): Linear(in_features=6144, out_features=1536, bias=True)
        (drop): Dropout(p=0.0, inplace=False)
      )
      (skip_linear): Linear(in_features=3072, out_features=1536, bias=True)
    )
    (10): Block(
      (norm1): LayerNorm((1536,), eps=1e-05, elementwise_affine=True)
      (norm2): LayerNorm((1536,), eps=1e-05, elementwise_affine=True)
      (attn): Attention(
        (qkv): Linear(in_features=1536, out_features=4608, bias=False)
        (attn_drop): Dropout(p=0.0, inplace=False)
        (proj): Linear(in_features=1536, out_features=1536, bias=True)
        (proj_drop): Dropout(p=0.0, inplace=False)
      )
      (drop_path): Identity()
      (norm3): LayerNorm((1536,), eps=1e-05, elementwise_affine=True)
      (mlp): Mlp(
        (fc1): Linear(in_features=1536, out_features=6144, bias=True)
        (act): GELU(approximate='none')
        (fc2): Linear(in_features=6144, out_features=1536, bias=True)
        (drop): Dropout(p=0.0, inplace=False)
      )
      (skip_linear): Linear(in_features=3072, out_features=1536, bias=True)
    )
    (11): Block(
      (norm1): LayerNorm((1536,), eps=1e-05, elementwise_affine=True)
      (norm2): LayerNorm((1536,), eps=1e-05, elementwise_affine=True)
      (attn): Attention(
        (qkv): Linear(in_features=1536, out_features=4608, bias=False)
        (attn_drop): Dropout(p=0.0, inplace=False)
        (proj): Linear(in_features=1536, out_features=1536, bias=True)
        (proj_drop): Dropout(p=0.0, inplace=False)
      )
      (drop_path): Identity()
      (norm3): LayerNorm((1536,), eps=1e-05, elementwise_affine=True)
      (mlp): Mlp(
        (fc1): Linear(in_features=1536, out_features=6144, bias=True)
        (act): GELU(approximate='none')
        (fc2): Linear(in_features=6144, out_features=1536, bias=True)
        (drop): Dropout(p=0.0, inplace=False)
      )
      (skip_linear): Linear(in_features=3072, out_features=1536, bias=True)
    )
    (12): Block(
      (norm1): LayerNorm((1536,), eps=1e-05, elementwise_affine=True)
      (norm2): LayerNorm((1536,), eps=1e-05, elementwise_affine=True)
      (attn): Attention(
        (qkv): Linear(in_features=1536, out_features=4608, bias=False)
        (attn_drop): Dropout(p=0.0, inplace=False)
        (proj): Linear(in_features=1536, out_features=1536, bias=True)
        (proj_drop): Dropout(p=0.0, inplace=False)
      )
      (drop_path): Identity()
      (norm3): LayerNorm((1536,), eps=1e-05, elementwise_affine=True)
      (mlp): Mlp(
        (fc1): Linear(in_features=1536, out_features=6144, bias=True)
        (act): GELU(approximate='none')
        (fc2): Linear(in_features=6144, out_features=1536, bias=True)
        (drop): Dropout(p=0.0, inplace=False)
      )
      (skip_linear): Linear(in_features=3072, out_features=1536, bias=True)
    )
    (13): Block(
      (norm1): LayerNorm((1536,), eps=1e-05, elementwise_affine=True)
      (norm2): LayerNorm((1536,), eps=1e-05, elementwise_affine=True)
      (attn): Attention(
        (qkv): Linear(in_features=1536, out_features=4608, bias=False)
        (attn_drop): Dropout(p=0.0, inplace=False)
        (proj): Linear(in_features=1536, out_features=1536, bias=True)
        (proj_drop): Dropout(p=0.0, inplace=False)
      )
      (drop_path): Identity()
      (norm3): LayerNorm((1536,), eps=1e-05, elementwise_affine=True)
      (mlp): Mlp(
        (fc1): Linear(in_features=1536, out_features=6144, bias=True)
        (act): GELU(approximate='none')
        (fc2): Linear(in_features=6144, out_features=1536, bias=True)
        (drop): Dropout(p=0.0, inplace=False)
      )
      (skip_linear): Linear(in_features=3072, out_features=1536, bias=True)
    )
    (14): Block(
      (norm1): LayerNorm((1536,), eps=1e-05, elementwise_affine=True)
      (norm2): LayerNorm((1536,), eps=1e-05, elementwise_affine=True)
      (attn): Attention(
        (qkv): Linear(in_features=1536, out_features=4608, bias=False)
        (attn_drop): Dropout(p=0.0, inplace=False)
        (proj): Linear(in_features=1536, out_features=1536, bias=True)
        (proj_drop): Dropout(p=0.0, inplace=False)
      )
      (drop_path): Identity()
      (norm3): LayerNorm((1536,), eps=1e-05, elementwise_affine=True)
      (mlp): Mlp(
        (fc1): Linear(in_features=1536, out_features=6144, bias=True)
        (act): GELU(approximate='none')
        (fc2): Linear(in_features=6144, out_features=1536, bias=True)
        (drop): Dropout(p=0.0, inplace=False)
      )
      (skip_linear): Linear(in_features=3072, out_features=1536, bias=True)
    )
  )
  (norm): LayerNorm((1536,), eps=1e-05, elementwise_affine=True)
  (decoder_pred): Linear(in_features=1536, out_features=16, bias=True)
  (token_embedding): Embedding(2, 1536)
)